TrainedModels/convlstm_sweatynet1_trained_model.pkl (torch_old, 157538 bytes, 2 tensors)

cell_list.0.conv.weight f4 [128, 33, 3, 3]
0	0x3ce60cee	0.028082337
1	0x3dcd38c8	0.10020596
2	0x3dc5b291	0.096531995
3	0x3d2d14f4	0.04225631
4	0x3da76202	0.081729904
5	0x3dde886d	0.10865865
6	0x3d1323c9	0.0359228
7	0x3d3cb470	0.046070516
8	0x3d8fceed	0.0702189
9	0x3d476f09	0.048689876
10	0x3d1f2232	0.03885097
11	0x3cd86e47	0.026419772
12	0x3ccb7362	0.024835292
13	0x3c908213	0.01764015
14	0xbd2ee904	-0.04270269
15	0x3cdc8218	0.026917502
16	0xbcd75afe	-0.026288506
17	0xba589b50	-0.00082628895
18	0xbd9dc7af	-0.07704102
19	0xbd9b286e	-0.07576071
20	0xbd81add0	-0.0633198
21	0xbd82d17d	-0.06387613
22	0xbd853b7d	-0.06505487
23	0xbdfc46c7	-0.12318187
24	0xbd4a6eab	-0.049421947
25	0xbd28919b	-0.041154485
26	0xbd8644b4	-0.06556073
27	0x3d69cbb8	0.057079047
28	0x3bb00aea	0.005372395
29	0x3bedf73d	0.007262139
30	0xbcb6d266	-0.022317123
31	0x3c6eaa23	0.014566931
32	0xbcbe9cfd	-0.023268217
33	0xbd02800a	-0.03186039
34	0xbc1c9374	-0.00955664
35	0x3c7540aa	0.01496903
36	0x3d1da590	0.03848797
37	0x3c27d29b	0.010243083
38	0x3ca16b9d	0.019704634
39	0xbd33c4eb	-0.043888967
40	0xbbe03dbd	-0.0068432973
41	0xbd5388d5	-0.051644165
42	0x3cd2ea85	0.025746593
43	0xbd066437	-0.032810416
44	0xbd4d8eeb	-0.050185125
45	0xbd6b381a	-0.05742655
46	0xb9ce1e85	-0.0003931412
47	0xbda97724	-0.082746774
48	0xbd35a1c1	-0.044343714
49	0xbccb41df	-0.024811683
50	0xbcaa9bc9	-0.020826237
51	0xbc595263	-0.013264271
52	0x3d4c512a	0.04988209
53	0x3c54bd39	0.012984567
54	0xbcf4a5f1	-0.029864283
55	0x3d402b59	0.04691634
56	0xbd1f14bf	-0.038838144
57	0xb7c33927	-2.3272425e-05
58	0xbc03da29	-0.008047619
59	0x3d51a651	0.051184002
60	0xbd2508ba	-0.040291525
61	0xbcf70be3	-0.030157035
62	0x3b9e1bcf	0.0048250924
63	0xbd80df7f	-0.062926285
64	0xbcaaad5b	-0.020834615
65	0xbd3c6890	-0.045998156
66	0xbd6f00c7	-0.05835035
67	0xbd3e8180	-0.04651022
68	0x3be9e0ba	0.007137385
69	0x3c7b196f	0.015325888
70	0xbc1899a1	-0.009313972
71	0xbd450c7d	-0.048107613
72	0x3d3d19ab	0.046167057
73	0xbd7f57f2	-0.06233973
74	0x3d2a415d	0.04156624
75	0x3d4f8cfd	0.050671566
76	0x3d5b7607	0.053579357
77	0x3c90b7c3	0.01766575
78	0x3d4a1cd7	0.04934391
79	0xbaa5d0c8	-0.0012650723
80	0x3c850c79	0.016241299
81	0x3d12bba8	0.035823494
82	0x3cea85cf	0.028628258
83	0xbad84229	-0.001649921
84	0xbd1326a5	-0.035925526
85	0x3be44766	0.006966519
86	0xbb206679	-0.002447514
87	0x3d1a44a4	0.037663117
88	0x3d6ce459	0.057834957
89	0x3d215388	0.039386302
90	0xbc97b47f	-0.018518684
91	0x3c24ff2a	0.0100706015
92	0xbd01196c	-0.031518385
93	0xbd727bf9	-0.05920026
94	0x3d4284f8	0.04749009
95	0x3c10ad26	0.008830344
96	0xbc24f242	-0.010067524
97	0x3ca38774	0.01996205
98	0x3c5717b3	0.013128209
99	0xba25497c	-0.00063052005
100	0x3caed872	0.021343444
101	0xbc8140f5	-0.015778044
102	0xbd0b35e5	-0.033986945
103	0x3bb97948	0.00566021
104	0xbd027789	-0.03185228
105	0x3d4aae15	0.049482424
106	0xbd15c37a	-0.036563374
107	0xbd19e935	-0.03757592
108	0xbd6eb845	-0.058281202
109	0xbd0a3f7a	-0.033751942
110	0xbd530a05	-0.051523227
111	0x3d114a89	0.035471473
112	0xbb9f1e8f	-0.004855938
113	0xbc940b73	-0.018071866
114	0x3d38f935	0.045159537
115	0xbc757954	-0.01498254
116	0x3d26e3f4	0.040744737
117	0x3c682915	0.014169951
118	0xbb0054c9	-0.0019581786
119	0xbd682a0c	-0.056680724
120	0x3c7ad34e	0.015309168
121	0xbcaedd86	-0.021345865
122	0x3cc233da	0.023706365
123	0x3c46e928	0.01214055
124	0xbceb0485	-0.028688679
125	0x3d2f4c8b	0.042797606
126	0x3d17e660	0.037084937
127	0xbd3461f2	-0.04403872
128	0xbc9d8f39	-0.019233333
129	0x3ca6580e	0.02030566
130	0x3d049639	0.032369826
131	0xbcbfbef4	-0.023406483
132	0xbc8d1f4a	-0.017226834
133	0xbd4d7c45	-0.05016734
134	0xbcc5c77f	-0.024142979
135	0x3c8c7177	0.017143948
136	0x3daab501	0.08335305
137	0x3d597de9	0.053098593
138	0x3d812ad2	0.063069955
139	0x3d46562e	0.04842203
140	0x3cab9621	0.02094561
141	0xbd0ab907	-0.033867862
142	0x3c25e8ac	0.010126274
143	0xbbe65b3f	-0.0070299204
144	0x3d18b098	0.037277788
145	0x3d01f3bf	0.031726595
146	0xbba05af6	-0.004893656
147	0xbc50d649	-0.012746402
148	0xbcbf28d5	-0.0233349
149	0xbbec1154	-0.007204214
150	0x3d3bc9e9	0.045846853
151	0xbc6cb789	-0.014448055
152	0xbcb3010d	-0.021851087
153	0xbd4b4840	-0.04962945
154	0xbd53cb2c	-0.05170743
155	0xbd3949e9	-0.0452365
156	0xbd38a1b2	-0.04507608
157	0xbd00b6b5	-0.031424243
158	0xbba50419	-0.005035889
159	0x3c998c59	0.01874368
160	0x3b88c98a	0.004174416
161	0x3d0b00e0	0.03393638
162	0x3c815bad	0.015790785
163	0x3c38da03	0.011282447
164	0x3d5df840	0.054191828
165	0xbd21a848	-0.039467126
166	0xbcd64ac1	-0.026158692
167	0xbd4b851e	-0.049687497
168	0xb906843d	-0.00012828498
169	0xbc7804cf	-0.015137865
170	0x3b289b6a	0.00257274
171	0x3a0802ae	0.00051883876
172	0x3ce53cc2	0.027983073
173	0xbcedd9e1	-0.029034557
174	0x3c361fb6	0.011115959
175	0xbd40b755	-0.04704984
176	0x3d63d67f	0.05562448
177	0x3c95da01	0.018292429
178	0xbcfe3263	-0.031029886
179	0x3cbd2a63	0.0230915
180	0xbd0ed158	-0.034867615
181	0x3d2223a8	0.039584786
182	0x3bc642f5	0.0060504624
183	0xbc9a14b5	-0.018808702
184	0xbcf4474c	-0.029819153
185	0xbd06452d	-0.032780815
186	0xbd4c0f3f	-0.049819227
187	0xbd2ef9a5	-0.04271855
188	0xbcd8d887	-0.026470436
189	0xbc1e777f	-0.009672045
190	0x3d3289c0	0.0435884
191	0x3c8a7668	0.016902164
192	0x3cb03ae4	0.021512456
193	0xbceb0a97	-0.028691573
194	0x3cc4bbed	0.024015391
195	0x3d455d19	0.048184488
196	0xbd487942	-0.048943765
197	0x3cabea56	0.020985764
198	0x3b83bf59	0.004020613
199	0xbd202c43	-0.03910471
200	0xbd64a1af	-0.055818256
201	0xbcae958f	-0.02131155
202	0xbd66944c	-0.05629377
203	0xbcda76a9	-0.02666791
204	0xbb2919e9	-0.0025802797
205	0x3d5767e8	0.052589327
206	0x3c0aa4fa	0.008462185
207	0xbd1f498e	-0.038888507
208	0x3b809780	0.00392431
209	0x3bd20ac9	0.006409977
210	0xbd2deb09	-0.042460475
211	0xbd1ecb86	-0.038768314
212	0x3b9f108a	0.0048542665
213	0x3d588ed3	0.052870583
214	0xbd70ce64	-0.05879058
215	0xbcdc516f	-0.0268943
216	0x3d5821dc	0.052766666
217	0xbc79ae44	-0.015239302
218	0x3bc2a3c0	0.0059399307
219	0xbd72cebe	-0.059279196
220	0xbd15f749	-0.036612783
221	0x3d595bb6	0.053065978
222	0x3bc70064	0.0060730446
223	0x3d681352	0.05665905
224	0xbc32df18	-0.0109174475
225	0xbd7b4569	-0.06134549
226	0xbc2345e0	-0.00996539
227	0x3c887922	0.016659323
228	0xbd3afed1	-0.045653168
229	0x3cf1ecb3	0.029531812
230	0x3cf8175d	0.030284578
231	0xbd437d47	-0.047726896
232	0xbc09a7f2	-0.008401858
233	0x3ce2b685	0.027674923
234	0x3d0c844a	0.03430585
235	0xbc5c9be8	-0.013464905
236	0x3d1a16bd	0.03761934
237	0x3d71b5d0	0.05901128
238	0x3d45f62d	0.048330475
239	0xbc824e7e	-0.015906569
240	0x3bd056b4	0.006357992
241	0x3ca014b9	0.019541131
242	0xbd1290cd	-0.035782624
243	0xbd1c02be	-0.038088553
244	0x3d606137	0.05478021
245	0x3d0fe9cb	0.03513507
246	0xbbcf54d2	-0.00632725
247	0x3c715f3b	0.014732177
248	0xbd3b3c8f	-0.04571205
249	0x3ca61860	0.020275295
250	0xbacbf611	-0.0015561004
251	0x3a1fe3f0	0.0006099334
252	0xbcbe7901	-0.023251059
253	0x3d525a22	0.05135549
254	0xbce042b5	-0.027375558
255	0x3aab9e15	0.0013093377

cell_list.1.conv.weight f4 [4, 33, 3, 3]
0	0xbd476947	-0.048684385
1	0xbdc6ece9	-0.09713156
2	0xbd847e37	-0.06469386
3	0xbd5f1c0a	-0.0544701
4	0xbdce0862	-0.10060193
5	0xbcc21cd8	-0.023695394
6	0xbc98e563	-0.018664068
7	0xbdcb15e4	-0.09916285
8	0xbd0fcadc	-0.03510557
9	0x3d14ac08	0.036296874
10	0x3cc80ee2	0.02442116
11	0xbc84c64a	-0.016207833
12	0xbcc288ec	-0.02374693
13	0xbc3e3b67	-0.011610842
14	0xbdb257b2	-0.08708133
15	0xbc83cfcf	-0.016090302
16	0xbd88a563	-0.0667217
17	0xbdb8f242	-0.09030582
18	0x3e044546	0.1291705
19	0x3d352df7	0.04423329
20	0x3d6f60ac	0.058441803
21	0x3dd700d6	0.10498206
22	0x3df41977	0.119189195
23	0x3d248005	0.04016115
24	0x3db74279	0.089482255
25	0x3df101fc	0.117679566
26	0x3be3741a	0.0069413306
27	0x3dde9870	0.10868919
28	0x3d90718e	0.07052909
29	0x3dca2cb0	0.09871805
30	0x3d80b30c	0.062841505
31	0x3df74c7d	0.12075136
32	0x3d430e2b	0.047620934
33	0x3d4daee5	0.05021562
34	0x3c37e5fc	0.011224266
35	0x3d85789d	0.06517146
36	0xbdd8be84	-0.10583213
37	0xbe17414b	-0.14771001
38	0xbe4ca384	-0.19984251
39	0xbda88c2c	-0.08229861
40	0xbe1676a7	-0.146937
41	0xbe08e25d	-0.133676
42	0xbdb6d8c3	-0.08928063
43	0xbe17bd07	-0.14818202
44	0xbcb76497	-0.022386832
45	0xbd83b2be	-0.06430577
46	0xbdba9703	-0.091108344
47	0xbdf40d1b	-0.11916562
48	0xbd8ba1b7	-0.06817954
49	0xbce050f5	-0.027382353
50	0xbd1c4b20	-0.038157582
51	0xbdf0aeaa	-0.117520645
52	0xbd9e17a2	-0.07719351
53	0xbdaf5512	-0.08561148
54	0x3db78911	0.0896169
55	0x3dc81faf	0.09771668
56	0x3e2210ae	0.15826675
57	0x3de32dfd	0.11092756
58	0x3d32c228	0.043642193
59	0x3dfbcc97	0.12294882
60	0x3dba1ba6	0.09087305
61	0x3da26a03	0.079303764
62	0x3d57106d	0.0525059
63	0xbdc4c890	-0.09608567
64	0xbd9db885	-0.0770121
65	0xbdf36ba7	-0.118857674
66	0xbd88c125	-0.066774644
67	0xbd903a79	-0.07042403
68	0xbd4af1f6	-0.04954716
69	0xbd6f484e	-0.058418564
70	0xbda27fca	-0.0793453
71	0xbcdaf999	-0.026730346
72	0x3e05157a	0.12996474
73	0x3de08d4c	0.1096445
74	0x3dd1ff6c	0.10253796
75	0x3df1c4c3	0.118051074
76	0x3da7a30b	0.08185395
77	0x3dac1675	0.08402721
78	0x3e0f9fd9	0.14025821
79	0x3d04cf23	0.032424103
80	0x3dcc66a8	0.099805176
81	0xbdc464e6	-0.09589557
82	0xbe185389	-0.14875616
83	0xbd98ab4d	-0.07454548
84	0xbdd42c37	-0.10359996
85	0xbdfd814b	-0.12378176
86	0xbdbd6282	-0.092473045
87	0xbd7ab716	-0.06120976
88	0xbcfd28c6	-0.030903231
89	0xbd2edaa4	-0.04268898
90	0xbe0a2000	-0.1348877
91	0xbde13973	-0.10997286
92	0xbd776279	-0.060396645
93	0xbda72550	-0.08161414
94	0xbdb9cba4	-0.090720445
95	0xbcaff2bd	-0.021478051
96	0xbdcb0e6a	-0.09914859
97	0xbca92727	-0.020648552
98	0xbbbc68e7	-0.00574981
99	0x3d39c31a	0.04535208
100	0x3e036372	0.12830904
101	0x3d00a694	0.03140886
102	0x3ded6149	0.11590821
103	0x3c8650ef	0.016396014
104	0x3da0fffe	0.07861327
105	0x3c2264b7	0.009911708
106	0x3cab4e34	0.020911314
107	0x3cc06dcc	0.023489855
108	0xbd164193	-0.03668363
109	0xbde2aaf4	-0.11067763
110	0xbe0e2b09	-0.13883604
111	0xbdfea6f2	-0.12434186
112	0xbd1d91b0	-0.038469017
113	0xbc77aa31	-0.01511626
114	0xbd290f2e	-0.041274242
115	0xbdcac195	-0.09900204
116	0xbbdb55ab	-0.006693562
117	0xbd1e97f7	-0.038719144
118	0xbdbee69e	-0.093213305
119	0xbdb69ee7	-0.08917027
120	0xbc15d1aa	-0.009144226
121	0xbd168960	-0.036752105
122	0xbd082918	-0.033242315
123	0xbcffac40	-0.031210065
124	0xbd74b5a6	-0.059743546
125	0x3bf97bb0	0.0076136217
126	0x3e2bc16a	0.16773
127	0x3dfe0092	0.124024525
128	0x3dd680a7	0.10473757
129	0x3e1644a6	0.14674625
130	0x3e3058d1	0.17221381
131	0x3db6c233	0.08923759
132	0x3de6d481	0.11271001
133	0x3d87a5c1	0.06623412
134	0x3daa6779	0.08320517
135	0xbda62140	-0.08111811
136	0xbd70fed5	-0.058836777
137	0xbd8b05af	-0.067881934
138	0xbdf2cc72	-0.11855401
139	0xbdf37a80	-0.118885994
140	0xbbed741e	-0.0072465083
141	0xbd41f5f5	-0.047353704
142	0xbde4cc83	-0.1117182
143	0xbda3e841	-0.08003283
144	0x3d8f0b8d	0.06984625
145	0x3defa0d1	0.11700595
146	0x3d9db0c0	0.07699728
147	0x3dfa6098	0.12225455
148	0x3da4438d	0.08020697
149	0x3deaec28	0.114708245
150	0x3cbf6d76	0.023367625
151	0x3dc6a363	0.09699132
152	0x3c94b28d	0.018151546
153	0xbd58e69b	-0.052954298
154	0xbe11e799	-0.14248504
155	0xbddd323e	-0.108005986
156	0xbdbd86fe	-0.09254263
157	0xbd90c1ad	-0.07068191
158	0xbca62bc1	-0.020284535
159	0xbd9b88b0	-0.075944304
160	0xbccc3d3c	-0.024931543
161	0xbdb51ccb	-0.088433824
162	0xbde1fba0	-0.11034322
163	0xbd16fd18	-0.036862463
164	0xbdf1835d	-0.11792634
165	0xbd94ee15	-0.07271973
166	0xbdfbce13	-0.12295165
167	0xbcd4b09f	-0.025963126
168	0xbdc69c06	-0.09697728
169	0xbdf3b6a5	-0.11900071
170	0xbd18ae66	-0.037275694
171	0x3e07a0c7	0.13244925
172	0x3defc30d	0.11707125
173	0x3e3392f9	0.17536534
174	0x3e1eb314	0.15498
175	0x3e31a419	0.17347755
176	0x3e2f322f	0.17108987
177	0x3dcdb9a8	0.10045177
178	0x3d5cf22e	0.053941898
179	0x3cf8ae21	0.030356469
180	0xbcfd92cf	-0.030953793
181	0xbd95e47b	-0.0731897
182	0xbdcb9039	-0.09939618
183	0xbd2bd76a	-0.04195348
184	0xbd4a44d9	-0.049382064
185	0xbd6d98b8	-0.058006972
186	0xbd20792d	-0.039178062
187	0xbdeea92e	-0.11653362
188	0xbd943281	-0.07236195
189	0x3e01c23c	0.12671751
190	0x3df4349a	0.119240955
191	0x3dc7542f	0.097328536
192	0x3dbad8d6	0.091233894
193	0x3d93d6c5	0.072186984
194	0x3d0006e5	0.031256575
195	0x3d0b35cc	0.03398685
196	0x3d38777b	0.04503582
197	0x3d9cae42	0.076504245
198	0xbd2b41bf	-0.041810747
199	0xbe021125	-0.12701853
200	0xbe19d8e7	-0.15024148
201	0xbd1d6550	-0.038426697
202	0xbdbc932a	-0.09207757
203	0xbdead620	-0.11466622
204	0xbd7f50d8	-0.062332958
205	0xbe0b2ca1	-0.13591243
206	0xbda945b4	-0.08265248
207	0x3de966c7	0.11396556
208	0x3de22778	0.11042684
209	0x3de57c97	0.11205404
210	0x3e19ba52	0.15012482
211	0x3dc5cec7	0.0965858
212	0x3dddee59	0.10836477
213	0x3e1b4806	0.15164194
214	0x3daeba7d	0.085316636
215	0x3db24689	0.0870486
216	0xbdb4db11	-0.08830846
217	0xbdcda870	-0.100418925
218	0xbe21c24d	-0.15796776
219	0xbda8a455	-0.08234469
220	0xbe353ed6	-0.17699751
221	0xbe0f9f69	-0.14025654
222	0xbde57635	-0.11204187
223	0xbd725675	-0.059164483
224	0xbd1a77cc	-0.037711903
225	0xbde67493	-0.112527035
226	0xbe10e5d3	-0.14150171
227	0xbcfbccea	-0.03073736
228	0xbd558318	-0.052126974
229	0xbd68f409	-0.056873355
230	0xbda808ad	-0.0820478
231	0xbda926a9	-0.08259327
232	0xbdfe91a4	-0.124301225
233	0xbb9ebb74	-0.0048441235
234	0x3d901557	0.0703532
235	0x3dcd2178	0.10016149
236	0x3e13d773	0.14437656
237	0x3de6d8ea	0.11271842
238	0x3d8b30d5	0.06796423
239	0x3df62d66	0.12020378
240	0x3d250173	0.040284585
241	0x3d542966	0.051797293
242	0x3d92ff6e	0.071776256
243	0x3d86472f	0.06556546
244	0x3e1702ee	0.14747211
245	0x3db7c001	0.08972169
246	0x3d4054d9	0.046955917
247	0x3dd94675	0.10609142
248	0x3cae0c6a	0.021246154
249	0x3d86fcef	0.06591212
250	0x3cee7a0c	0.02911093
251	0xbd085836	-0.03328725
252	0x3da68276	0.08130352
253	0x3d4175ff	0.04723167
254	0x3d937586	0.0720015
255	0x3dc4bc84	0.09606269
